…
.layers.Dropout(\n        rate=0.25\n    )\n) \n```", "```py\nmodel.add(\n    tf.keras.layers.Dense(\n        units=1, \n        activation='sigmoid' \n    )\n) \n```", "```py\nmodel.compile(\n    loss=tf.keras.losses.binary_crossentropy, \n    optimizer=tf.keras.optimizers.Adam(), \n    metrics=['accuracy']) \n```", "```py\nmodel.summary() \n```", "```py\n__________________________________________________________________________\nLayer (type)               Output Shape               Param #\n=========================================================================\nembedding (Embedding)      (None, 500, 32)            320000\ndropout (Dropout)          (None, 500, 32)            0\nlstm (LSTM)                (None, 32)                 8320\ndropout_1 (Dropout)        (None, 32)                 0\ndense (Dense)              (None, 1)                  33\n=========================================================================\nTotal params: 328,353\nTrainable params: 328,353\nNon—trainable params: 0 \n```", "```py\n    history = model.fit(\n        x_train, y_train,    # Training data\n        batch_size=256,      \n        epochs=3,            \n        validation_split=0.2,\n        verbose=1            \n    ) \n    ```", "```py\n    Epoch 1
…
